savedModels/actor_with_delay.pt (torch_old, 8340 bytes, 4 tensors)

target_policy.W1 f4 [600, 1]
00000000: 173b 51be 16c3 e8bd 29f2 9e3e 7235 b9be
00000010: 85e6 6b3e bb3e aaba 2920 dabb 79c9 f03e
00000020: d5c7 85be 8302 b3be 67c3 b7bd 36c6 a83e
00000030: 92da 2f3b c856 9fbe 2590 10bf 274c aebe
00000040: feb9 023d 34a8 df3e f0ab 80be 4130 c23e
00000050: 6b41 193f e444 02be bb26 f33e 1a66 653e
00000060: 3556 c63d 98f7 1e3e e271 7cbb 4d22 f53d
00000070: 0a81 333e abd1 bb3e d887 08bf 44a5 b9be
00000080: 8cea 243e 70df 61bd 9ac0 a5be 8348 5dbe
00000090: a770 0a3f 7c61 97be 2aa9 8b3e 35dd 713e
000000a0: 53df 3cbe 71a4 d3bd 9b49 01bd f99f 033e
000000b0: 3ec2 d93e 2a48 9c3e f4a5 ee3e 8af3 d7be
000000c0: 96d6 e8be e8b6 3b3e 1637 cb3d efb8 003f
000000d0: 4a79 f7bd e159 c43c 6ea1 05be 2721 f2be
000000e0: 0f2e b5bd 6bf7 2d3d 7241 2f3e a715 d53e
000000f0: 68fa 823e c238 9cbc daf2 9a3e 9718 96be
00000100: c99c a23e f552 9e3e 1943 80be 4eaa 9abc
00000110: 4bb2 98bd 7e22 c4be 7e00 2b3d 37d0 b6be
00000120: 655d 7f3e dd9f c4be 2d4b a4be c155 02be
00000130: 6c82 84be 3d13 6b3e 553c 8cbe cada a9bd
00000140: 09fa 13bf 43b6 c43e 3dfc 94be 969b a7be
00000150: 7b6d 0b3e e428 e2be 6980 003c ad2e 643e
00000160: ea23 243e 10aa 393d 07ff 9bbe 35ae 8a3e
00000170: db5c c73e af97 d43e f554 9ebd 8e8f ea3d
00000180: 1290 95be 5549 b9be 6f43 27bd 90b5 8b3e
00000190: 5d69 9e3d eaa1 08bf 10e0 9c3c 3930 6f3e
000001a0: aac3 42bc c685 ab3e 73eb 09be 6709 33bd
000001b0: ee98 013d 8806 c73e 0fda 513e b136 03bf
000001c0: 12e5 a63e a37e 783e f237 bebe 889b 523d
000001d0: 6c0f a4be 7ed3 1f3f 3ab2 923e 3482 87be
000001e0: 7558 25be a4fe 42bd afde b13e ca15 07be
000001f0: bd25 2b3c 4bd1 69be 8e15 5e3e 2f98 663e
00000200: dd3c 563d 042e 5bbe b328 ca3e 17b3 593e
00000210: ea2c a13e 5216 b4be cc62 a0bd fbb0 9dbe
00000220: a4ea 813e 1869 8abe f642 1d3d 59be 05bf
00000230: 6931 d2bd a802 44be b428 34be 835e 81bd
00000240: 1c77 ef3c 4f9d 893e 25ea cebd eed3 1dbe
00000250: 88ac 843e 5445 ebbe 9d2c 13bf 8c49 763e
00000260: 529a dc3e 20e2 733e 45a7 8ebe b23e fb3e
00000270: 4949 fd3d bad1 a6be 086f 9d3e 5095 edbd
00000280: 4ccf 0fbe 82e8 fe3e e1eb 993d 638f 913d
00000290: f210 393d 5432 8bbe 9c40 d0be 4c58 aa3d
000002a0: 28fa 163f 92fe c1be 9969 a53e 46d8 503e
000002b0: 66b9 eb3e d9be 09bf 251c 77bd 8b67 aa3e
000002c0: 503b a5be 9fda 8e3d f4ca ed3d f137 203e
000002d0: 125f b0be 52a0 aabc 5146 003e bcfb 8fbe
000002e0: 9c2d 9d3d 543f 6cbe 4df2 c23e 7701 8bbe
000002f0: 477f c33e 2964 e83e 7ca3 bf3e 294c b13e
00000300: 95dc 0fbd b9a6 573e a066 e73e 4288 8e3e
00000310: 9058 65be 5b7a debe fc0d a1be e900 ccbe
00000320: d9f7 bfbd 7223 51bd 38e1 a2bc 3c7d cabe
00000330: 0730 cc3e 6110 113e a043 a0be 725f a3be
00000340: 1150 aabd bf01 ea3e 77ec ee3d 764c 11be
00000350: ad57 afbb 223c d1bd 3aea f1bc 59ac 403e
00000360: b31c 613e d7ca 30be cb41 c4bb 088d 3b3e
00000370: 7d31 0e3e aca2 f0be 4ba0 f5be b4ba 2a3e
00000380: 253e 77be 4d80 d93d 03ad 433d 52e3 723d
00000390: 83be 3fbe 8f74 343d 9ddb b73e 7ab3 2fbc
000003a0: b4c7 8d3e 3f0e f23e 621d a2be 5cc5 9e3e
000003b0: 2037 a0be 3f38 95be bd74 d43d 7972 bc3d
000003c0: c232 14be c3fb 83be 4ce3 6b3e cef3 8fbd
000003d0: fcb2 463d c516 eb3e f225 94be e990 2e3c
000003e0: 2d26 52be 6b4a 523e 6da3 a1bc 1dde 66be
000003f0: 8046 42be bb30 703e 2c97 ac3c 659b 3cbe
-0.20432697 -0.11365335 0.3104413 -0.36173588 0.23037155 -0.0012988666 -0.006656666 0.4702871
-0.26129022 -0.34962854 -0.08972817 0.32963723 0.002683316 -0.31120896 -0.5646995 -0.34042475
0.031915657 0.43683016 -0.25131178 0.3792744 0.59865445 -0.12721592 0.47490487 0.2240223
0.096844114 0.15524137 -0.0038520028 0.11969433 0.17529693 0.366834 -0.5333228 -0.362589
0.16105098 -0.055144727 -0.32373506 -0.21609692 0.54078144 -0.29566562 0.272775 0.2361954
-0.18444566 -0.10334099 -0.031564336 0.12853993 0.42531008 0.30523807 0.46610987 -0.42177993
-0.45476216 0.18331492 0.09922616 0.50282186 -0.12083681 0.023968639 -0.13049862 -0.47290918
-0.088466756 0.042472284 0.17114809 0.41618082 0.2558167 -0.019070033 0.30263406 -0.29315636
0.31760243 0.30922666 -0.2505119 -0.018880036 -0.07455882 -0.38307565 0.041748516 -0.3570573
0.24937971 -0.38403216 -0.32088605 -0.12728025 -0.25880754 0.22956558 -0.2738978 -0.08293684
-0.578034 0.38420305 -0.29098693 -0.3273589 0.13615982 -0.44171822 0.007843115 0.2228343
0.16029325 0.0453282 -0.30468008 0.27086034 0.3893803 0.41521975 -0.07731048 0.11453162
-0.2921148 -0.3618876 -0.040835794 0.2728696 0.0773494 -0.5337206 0.01914981 0.23358239
-0.01188747 0.335005 -0.13468723 -0.04371014 0.031639986 0.3887217 0.20493339 -0.5125533
0.32596642 0.24267058 -0.37152058 0.051417857 -0.32043016 0.62432086 0.286516 -0.26466525
-0.16147025 -0.047606125 0.34740207 -0.13191906 0.010446009 -0.22833745 0.2168791 0.22518991
0.052304137 -0.21404272 0.39484176 0.21259724 0.3147958 -0.3517328 -0.07831344 -0.30799088
0.2537433 -0.27033305 0.038393937 -0.5224357 -0.102633305 -0.19141638 -0.17593652 -0.06316855
0.0292316 0.2687783 -0.10103253 -0.15412876 0.2591288 -0.4595133 -0.5748995 0.24051493
0.43086487 0.23816729 -0.27861992 0.4907127 0.12367494 -0.32581884 0.30748773 -0.11600745
-0.14043921 0.49786764 0.075156935 0.07107427 0.045182176 -0.27186835 -0.40674293 0.083176225
0.5897546 -0.37889534 0.32307127 0.20395002 0.46039885 -0.53806835 -0.060329575 0.33282122
-0.32271814 0.069752924 0.11610976 0.1564634 -0.34447533 -0.0208284 0.12526824 -0.28121746
0.07674715 -0.23071033 0.38075486 -0.27149555 0.38183042 0.45388916 0.37429416 0.34628418
-0.035122473 0.21059693 0.45195484 0.2783833 -0.22397065 -0.43452725 -0.31455982 -0.39844444
-0.09373445 -0.051059194 -0.019882783 -0.3954867 0.39880392 0.14166404 -0.31301594 -0.31908756
-0.08316053 0.45704457 0.11666196 -0.14189324 -0.005351028 -0.102165475 -0.029530633 0.18815745
0.21983604 -0.17264877 -0.0059892884 0.18315518 0.13886066 -0.4699911 -0.47973856 0.16672784
-0.241448 0.106201746 0.04777242 0.05929882 -0.18725018 0.04405647 0.3590974 -0.010723943
0.27691424 0.47276494 -0.31663042 0.31009948 -0.31292057 -0.29144475 0.103738286 0.092015214
-0.14472488 -0.25778016 0.23035926 -0.07028924 0.048510537 0.4591581 -0.289352 0.010654666
-0.20522375 0.205362 -0.019731248 -0.22545667 -0.18972206 0.23456089 0.021068178 -0.18418653

target_policy.W2 f4 [300, 1]
00000000: a215 8ebc bb84 51be cc7c bbbe c5a9 28bd
00000010: 5e7f 42be 6aac 503c 8b8e b03d 7434 9e3e
00000020: 116d 0ebe 04b2 bb3c 4d12 743d 5a44 9e3e
00000030: ea21 a7be bd12 89bb bc19 c9be fbb5 9dbd
00000040: 23f5 26be 3e00 dc3e c3de cbbd 3573 f3be
00000050: ae6b fbbd dd83 2e3e 8021 a0be b911 863e
00000060: ea7c 613e 636d 1abe d6af aebe b2d0 69be
00000070: 04f7 983e cabb 6b3e b68e 193d 5670 30be
00000080: 9767 1a3e 0d6a cc3d aa83 d73e 8ba9 d33e
00000090: 4dc2 ddbd f24b 0bbc c91d fabd e066 2ebe
000000a0: b92f b03a 2b33 04be 1644 cf3e 3f70 17bf
000000b0: 23b9 93be 9ab6 63be 98b8 52be 08be 973e
000000c0: ae49 4a3e 2eb6 4d3e 593d c13e bc58 f73d
000000d0: 3128 cabb 42d7 27be e487 b4be c05d e2be
000000e0: aa5f 0d3e 4634 b43e 83b7 a7bd a0ff 8dbd
000000f0: de0c 993d 1dec 773e fb91 003e 6dcb 653e
00000100: 027d 443e 484a afbe 16c1 d43e c605 ce3c
00000110: 6967 b6be e571 f83c 6626 c9be 263d 553e
00000120: d314 61be d019 a73e 7c4a 31be bc6e 63bd
00000130: 695e 5e3e 3ea9 f03e 97d3 2a3e 4db3 353d
00000140: a374 94be 50df 4cbd 8c3a c53e 56ae fcbd
00000150: 4dba 903e 4c12 833e 86b1 6c3e 2407 67be
00000160: 2708 9abb 1afc 66be b5de c53e 325c 873e
00000170: 8828 a03e 7721 fcbb a00d 1cbe 93d9 11be
00000180: b1ce 88be e5e1 3abe 9a69 23be 0035 93be
00000190: 6e4e dfbe aaeb e03c 4252 9b3e a7f4 f8bd
000001a0: 5875 693e 389e 93bd 9d70 1ebe 0a5f 43bd
000001b0: a369 8c3e 5036 e4bd c3cc 85bd c03c 88be
000001c0: aef0 313d acf9 92ba 9ab5 9bbd 7b71 863d
000001d0: b67b 903d 2328 023e c9da 39be 41f5 943e
000001e0: cd5a e5bd 5f79 a73e 49e4 00be 209f 9abe
000001f0: 855b a8be a8e6 5dbd 9f49 c1be 2da3 9dbe
00000200: a2b9 703d f402 65be 9e87 8c3e f91f 763e
00000210: 872b 15be 1bd2 92be 02b5 863e 54ae cebd
00000220: 775c 97bc cc4f bdbe c3d4 523e 13ca f5be
00000230: 3876 833c 32b6 b13e 3f49 0e3e c78b 99bd
00000240: 169e 2d3e 65f2 323e c32a d83e d8b8 283e
00000250: ad78 853e 5dda 513e c2ab 31be 7e47 ac3e
00000260: e213 dc3e c7c6 28be 61bf 893e 14af 9b3e
00000270: ac4a 813d a69e dfbd 4070 58be e11b eebe
00000280: ced3 b4be 3f92 a83e e825 45be 2891 b8be
00000290: c5e9 90be dc5d 38be b485 893e 23f7 353e
000002a0: 8223 683e bae4 923e 8faf 233e 0a1a 14be
000002b0: 6613 dbbe 850e 86be f4c2 653e b9db 583e
000002c0: 9955 ed3d 19c8 883e 1b96 0ebc 939e 3c3e
000002d0: b289 0d3e 61c0 383e fd8e ef3e 211e a73e
000002e0: 3e57 383e 02ba df3e 7edd f53e 6fc9 99be
000002f0: e4c9 9ebe d513 983e df11 f1be 0e0b cbbe
00000300: 38a5 a43e d2bf e5be 5ce4 403e 7fb4 423e
00000310: f338 773e c41d 873e 7c1c b3be 94a3 943e
00000320: 60e9 853e e793 4b3e f0bd f53d 9a59 e8bd
00000330: 9c99 8bbd 0344 a8be eaa8 e4bd 981c 12bd
00000340: e8da f8be 8ab8 3d3e a598 1d3e 09c1 183d
00000350: 09e7 bc3e f86a cfbe 8a06 a33e c8cb 4cbe
00000360: dcef 6f3e 5f7b d3bc 0359 7f3e 18f7 783e
00000370: abd0 bd3e 5d32 8dbe 094f e13e 2c8e a03e
00000380: 4bde 5f3d 5d54 5c3e 465f 8a3d dae1 37bd
00000390: ab6e 75be 6459 96be 5042 51be 360e 383e
000003a0: 863f 7fbe 8ae4 643e af2b 623e 70cf bc3e
000003b0: 52b3 a43d 2553 1f3e 54a9 cfbd e6bb 8c3e
000003c0: c616 9e3d 9a2a 12be 2a70 48bd 4062 193e
000003d0: 5bf9 cd3d 8fe5 02be bc73 773e 4c11 27be
000003e0: 37e3 8ebe 9ecc 0fbd 7381 10be 2476 b13e
000003f0: 5dcb 86be 6a13 60be 0d9d 84bd aa5d 22bd
-0.0173443 -0.20460789 -0.3661865 -0.04117753 -0.18993899 0.012736419 0.08620938 0.30899394
-0.13908793 0.022912033 0.059587765 0.30911523 -0.32643062 -0.004183142 -0.39277446 -0.07700726
-0.1630445 0.42968935 -0.09954598 -0.47548833 -0.12276398 0.1704249 -0.31275558 0.26185396
0.22020307 -0.1508079 -0.34118527 -0.22833517 0.29875958 0.23020855 0.037489615 -0.17230353
0.15078579 0.09981165 0.4209264 0.4134029 -0.108280756 -0.0085019935 -0.12212712 -0.17031431
0.0013441957 -0.12910144 0.40481633 -0.5915565 -0.28852186 -0.22237626 -0.2057823 0.2963717
0.19754669 0.20089027 0.37742117 0.120774716 -0.006169342 -0.16390708 -0.35259926 -0.4421215
0.13806024 0.3519613 -0.08189299 -0.06933522 0.07473157 0.24211164 0.12555687 0.22440882
0.19188312 -0.3423636 0.41553563 0.025149237 -0.3562577 0.030327747 -0.39287108 0.20824108
-0.219806 0.3263688 -0.1731357 -0.055525526 0.21715702 0.47004122 0.16682278 0.044360448
-0.28995237 -0.050017655 0.3852123 -0.123379394 0.28267136 0.25599897 0.23114595 -0.22561318
-0.004700679 -0.22557107 0.38646474 0.26437527 0.31280923 -0.007694419 -0.15239573 -0.14243154
-0.26720193 -0.18250234 -0.15958253 -0.28751373 -0.43614525 0.027456123 0.30336195 -0.12156039
0.2279867 -0.07207912 -0.15472646 -0.04769806 0.27424344 -0.11143172 -0.06533196 -0.2660885
0.04344242 -0.0011213324 -0.07602997 0.065646134 0.07054846 0.12710623 -0.18149866 0.29093364
-0.111989595 0.32709786 -0.12587084 -0.30199528 -0.32882324 -0.05417505 -0.3775148 -0.30788556
0.058770783 -0.22364408 0.27447218 0.24035634 -0.14567386 -0.28675923 0.26309973 -0.10091844
-0.018476708 -0.36974943 0.20588975 -0.48005733 0.016047582 0.34709316 0.13895129 -0.074973635
0.16954836 0.17475279 0.42220125 0.16476762 0.2606863 0.20493455 -0.17350677 0.33648294
0.4298392 -0.16482078 0.26903823 0.30407012 0.06313071 -0.10918932 -0.2113657 -0.46505645
-0.35317844 0.32924077 -0.19252741 -0.36048245 -0.28303352 -0.18004555 0.2685982 0.17770056
0.22669795 0.2869013 0.15984939 -0.14463058 -0.42788237 -0.26182953 0.2243765 0.21177568
0.11588592 0.26715162 -0.00870278 0.18419866 0.13822058 0.18042137 0.4678878 0.32640174
0.1800203 0.436966 0.48020548 -0.30036494 -0.31013405 0.2970263 -0.47083947 -0.39656872
0.32157302 -0.4487291 0.18837112 0.19014166 0.24142818 0.26389897 -0.3498267 0.2903105
0.26154613 0.19880639 0.11999118 -0.11345215 -0.06816408 -0.3286439 -0.1116503 -0.0356718
-0.48604512 0.18527427 0.1539026 0.037293468 0.36895016 -0.40511298 0.31840926 -0.19999611
0.23431343 -0.025815664 0.24936299 0.24313009 0.37073264 -0.27577487 0.44005612 0.3135847
0.054655354 0.21516557 0.06756453 -0.044893123 -0.23967998 -0.29365075 -0.20435452 0.17974171
-0.24926576 0.22352806 0.22086976 0.36877012 0.08042015 0.15559061 -0.10139719 0.27487105
0.077191874 -0.14274064 -0.048935093 0.14978886 0.100573264 -0.12782882 0.24165243 -0.16315192
-0.27907726 -0.035107248 -0.14111881 0.34660447 -0.2632703 -0.21882406 -0.064752676 -0.039640106

active_policy.W1 f4 [600, 1]
00000000: 76c9 51be 0608 e0bd 75d3 9e3e 8eb8 b9be
00000010: dead 673e 7c27 14bb 6eb8 a9bb 0020 f03e
00000020: 1973 85be 41f1 b2be d68c b1bd 8fcf a83e
00000030: 7e36 133b 68d1 9ebe d448 10bf da90 afbe
00000040: 40d8 033d c258 df3e a88b 81be b895 c33e
00000050: f190 193f 5bbb 01be eb14 f43e 3b90 653e
00000060: eea3 c73d f9d2 1c3e a2ea 60b8 fa21 f53d
00000070: 2d49 343e 41e2 b93e 2e6c 09bf 5b80 bbbe
00000080: 6310 253e 15e0 5fbd 0c3a a6be c913 5dbe
00000090: 66ce 0a3f 2649 98be 84fc 8b3e 71c5 713e
000000a0: 412c 3cbe 9772 d3bd 36cd f8bc 2082 033e
000000b0: 78c8 d93e fb2f 9c3e 3e46 f03e 9161 dabe
000000c0: 3f91 e9be 6549 3b3e 1ec3 ca3d f2d8 003f
000000d0: 9605 f2bd b3b2 b43c 4949 06be df31 f1be
000000e0: 6f7b b3bd 57a6 303d 54c0 2f3e 7854 d73e
000000f0: 3f44 833e 1587 75bc f0e3 993e fc11 95be
00000100: 0fce a23e 77ac 9d3e 65ae 81be a294 8fbc
00000110: b8be 98bd b7fc c3be 558d 2b3d 0182 b5be
00000120: a09c 7a3e 950f c5be 4e8d a4be 52e6 01be
00000130: de62 85be 9fbe 6a3e 253f 8cbe 552e adbd
00000140: c45a 14bf 3eed c43e 65d2 94be 6afa a8be
00000150: a213 0c3e 7192 e2be c5ad e13b f5d0 653e
00000160: 53cc 233e 8550 383d 3aba 9bbe 58d7 8a3e
00000170: 9e41 c73e 969a d43e db17 a0bd 38b2 e33d
00000180: c93b 95be 9c7e b9be 5088 23bd e510 8c3e
00000190: 6bbd 9d3d 38b5 08bf c18d a33c 7957 6f3e
000001a0: c4a1 3abc b738 ab3e a7e0 08be b36d 2fbd
000001b0: e589 033d fc2a c83e 40c8 513e f213 03bf
000001c0: b0eb a63e 836c 783e dc53 bebe 0ae9 4f3d
000001d0: abb7 a4be a1a2 1f3f d32c 953e 2c18 88be
000001e0: 994b 26be 54f6 3fbd 3fd3 b13e 86f2 07be
000001f0: e773 3b3c 0d67 6bbe 828f 5e3e a0a4 683e
00000200: c31c 513d ff2c 5abe 612d c93e a59b 563e
00000210: aa42 a13e 8201 b4be da5c a5bd 5690 9dbe
00000220: 5cff 803e ac7a 8abe c5bf 203d fd89 05bf
00000230: 9ab8 d1bd 3619 43be 54cc 36be 237d 7cbd
00000240: cce6 023d 9174 893e 67dc cdbd 6a31 1dbe
00000250: 2bbc 853e f8f9 ecbe ba43 13bf 4b0a 773e
00000260: 538e dc3e 1432 733e 8a49 8ebe feb1 fc3e
00000270: f210 f63d 8cf2 a8be b956 9b3e 61ad edbd
00000280: 0f2b 0fbe 1b17 fd3e e879 9c3d e41c 913d
00000290: b395 3d3d 9bcb 8abe 538b d0be ed54 a93d
000002a0: 173c 183f 3831 c1be 289d a73e 5d6f 4f3e
000002b0: b54e ec3e 45b6 08bf daf7 79bd 013e aa3e
000002c0: d2cb a5be bc2b 903d 6f5e ef3d 105d 1c3e
000002d0: be01 b0be df8f a9bc 8354 003e 2707 90be
000002e0: 5267 9a3d 4f50 6cbe 6a70 c33e 602e 8bbe
000002f0: 1f61 c33e 1e19 e83e 7f33 c03e e505 b23e
00000300: a4ef 0bbd 5ab4 573e 4928 e73e af3f 8e3e
00000310: eb3f 66be e5da debe eed0 a0be 6e0a ccbe
00000320: 109b c2bd 71b6 4ebd 9131 97bc 90ad cbbe
00000330: fae2 cb3e bcd6 103e a11b a1be ff42 a2be
00000340: 168f abbd 9f7f e93e 650e ee3d 7dff 0fbe
00000350: 0e27 bebb a082 d1bd 5a1a fcbc 26f2 403e
00000360: 53e5 5e3e ac34 30be 1e26 e2bb f33d 383e
00000370: 0da9 0d3e c09e f0be a66a f5be 5296 2b3e
00000380: 9fee 74be de87 d43d fdf1 423d 1e0f 743d
00000390: 6587 3fbe d6a6 363d a16c b93e ee4c 3abc
000003a0: 35cb 8c3e c50b f43e e7b6 a2be 57ef 9f3e
000003b0: aa1f a2be b521 96be b6d5 d93d 5048 c33d
000003c0: 2a00 15be 27a8 82be 0445 693e 96de 90bd
000003d0: f627 453d e333 ea3e f2c6 93be b320 253c
000003e0: 1d1b 54be 17ae 523e 248f 9ebc 57bf 67be
000003f0: 79a8 44be 7afe 6f3e 3909 ac3c 63ac 3bbe
-0.20487007 -0.1093903 0.31020704 -0.36273617 0.22624919 -0.0022606542 -0.0051794564 0.46899414
-0.26064375 -0.34949687 -0.086694404 0.32970855 0.00224629 -0.3101914 -0.56361127 -0.342902
0.032188654 0.43622404 -0.25301862 0.38200164 0.5998679 -0.12669127 0.4767221 0.22418301
0.09748064 0.15314855 -5.362428e-05 0.11969371 0.1760604 0.3630543 -0.53680694 -0.36621365
0.16119532 -0.05465706 -0.3246616 -0.21589579 0.5422119 -0.29743308 0.27341092 0.23610474
-0.18376257 -0.10324591 -0.03037129 0.12842607 0.42535758 0.30505356 0.4692859 -0.42652562
-0.45618626 0.18289717 0.09900497 0.5033103 -0.11817472 0.022057867 -0.13113894 -0.4710836
-0.087637775 0.043127384 0.17163211 0.42056632 0.25638005 -0.014985819 0.30056715 -0.29115283
0.31797835 0.30795643 -0.25328365 -0.017526928 -0.07458252 -0.38278744 0.04188283 -0.35450748
0.2447381 -0.3848845 -0.32139057 -0.12685516 -0.26051992 0.22924279 -0.27391925 -0.08456103
-0.57951 0.3846225 -0.29066768 -0.3300355 0.13679364 -0.4425235 0.00688717 0.22442992
0.15995912 0.044998664 -0.30415517 0.2711742 0.3891725 0.4152419 -0.0781705 0.11117977
-0.29147175 -0.36229408 -0.03992492 0.2735664 0.07702144 -0.5340152 0.019965054 0.23373212
-0.011391107 0.33441707 -0.13366948 -0.042829227 0.03211393 0.39095294 0.20486546 -0.5120231
0.3260169 0.24260144 -0.37173355 0.050759353 -0.32171378 0.62357527 0.2913576 -0.26580942
-0.16239776 -0.046865776 0.3473148 -0.13276109 0.0114412075 -0.2298853 0.21734431 0.2271905
0.05105282 -0.21306227 0.39292434 0.20957811 0.31496173 -0.351574 -0.08074351 -0.30774182
0.25194824 -0.27046716 0.039245386 -0.5216368 -0.10240288 -0.19052586 -0.17851382 -0.061642777
0.031958386 0.26846746 -0.10051804 -0.15350881 0.26120123 -0.4628446 -0.5752522 0.2412502
0.43077335 0.23749572 -0.2779048 0.49354547 0.12014951 -0.3299755 0.30339602 -0.11605335
-0.1398127 0.4943169 0.07640439 0.070855886 0.046285342 -0.27108464 -0.40731296 0.082681514
0.5946669 -0.37732863 0.32737088 0.20257325 0.461538 -0.5340312 -0.061027385 0.3325043
-0.32382065 0.07039592 0.11687934 0.15269876 -0.3437633 -0.020698486 0.12532239 -0.28130457
0.07539238 -0.2307751 0.38171703 -0.2718382 0.38160035 0.45331663 0.37539288 0.34770122
-0.034164086 0.21064892 0.45147923 0.27782962 -0.2248532 -0.43526378 -0.314094 -0.39851707
-0.09502232 -0.05046696 -0.018456252 -0.39780855 0.39821607 0.14144415 -0.31466392 -0.3169174
-0.08376901 0.4560518 0.11623839 -0.14062305 -0.0058029955 -0.10229993 -0.030774284 0.18842372
0.21767168 -0.17207593 -0.0069015166 0.17992382 0.13834019 -0.46996117 -0.4793293 0.16756561
-0.23919152 0.10377477 0.04759406 0.05958473 -0.18703993 0.0445927 0.3621569 -0.0113708805
0.27498785 0.4766523 -0.31780168 0.3123729 -0.31664783 -0.2932259 0.10636465 0.09535277
-0.14550844 -0.25518915 0.22780234 -0.07073705 0.048133813 0.4574271 -0.2886272 0.010078597
-0.20713468 0.20574223 -0.019355364 -0.22631584 -0.19204892 0.23436919 0.021000491 -0.18327479

active_policy.W2 f4 [300, 1]
00000000: 4eae 97bc 02fe 51be 6a83 bbbe 3b7a 2bbd
00000010: 9ff0 42be 6e66 3e3c 8429 b03d 1f77 9d3e
00000020: 241d 0ebe 0576 b73c e1a8 753d 0b1c 9e3e
00000030: 8e2b a7be 4af4 96bb 5dc9 c9be cd33 9cbd
00000040: 797b 27be 4fb5 dc3e 5a38 c8bd 034c f3be
00000050: 3efa f9bd cff1 2e3e 2127 a0be bbef 853e
00000060: ffb6 613e c894 1bbe 58ee aebe 932d 69be
00000070: 75d6 973e 506a 6d3e 25e2 183d c295 30be
00000080: 1865 1b3e 4ed2 cc3d 6c6b d73e 96ea d33e
00000090: 0fce debd 715e fabb 51e1 fabd 02b3 2ebe
000000a0: 6dd1 fc39 d2f5 03be 05f7 cf3e 3851 17bf
000000b0: d170 94be 748d 62be 71d9 51be ab75 973e
000000c0: 15a5 4a3e 4e92 4e3e 873d c13e 1d1c f93d
000000d0: 562a 9ebb e8f1 27be 95c0 b4be b3b3 e2be
000000e0: 5fd8 0c3e cbd9 b33e 8cec a4bd 42ad 8dbd
000000f0: eb6a 993d 6fbc 783e fbef 003e be89 663e
00000100: c5b9 443e 0e3e afbe c4c6 d43e 0cdc d43c
00000110: 9d4f b6be 7e1a f23c da3e c9be 9c50 543e
00000120: e22b 62be 6285 a73e 46c4 31be 0b4e 62bd
00000130: 284a 5e3e 10b3 f13e c295 293e b0ed 353d
00000140: a37e 94be 2364 4dbd 7b53 c53e 0fa9 fbbd
00000150: 2e30 913e 27cc 823e c334 6d3e 79ac 66be
00000160: b897 90bb 37e5 65be e3c2 c53e 2053 873e
00000170: 1a09 a03e d533 e0bb bd04 1bbe fb68 12be
00000180: 4fea 88be 8714 3bbe 415b 24be e660 93be
00000190: 22a9 dfbe b816 e03c 1149 9b3e 7f06 f9bd
000001a0: 7db2 693e f2c0 91bd 18a9 1dbe e182 41bd
000001b0: c0c2 8b3e a22f e6bd 6005 86bd a604 88be
000001c0: 8fbc 363d bc1d 95ba 01fa 99bd 1abb 863d
000001d0: fbc3 8e3d 9c9c 023e ee8a 37be 3174 953e
000001e0: 305a e5bd 5974 a73e 068f 00be c176 9abe
000001f0: d82f a8be fadc 62bd 4661 c1be f3c9 9dbe
00000200: c00e 6f3d be57 63be 83c9 8c3e 488e 763e
00000210: 9fc1 15be b09e 93be e2ef 863e dcb2 cfbd
00000220: 5576 90bc 95e6 bcbe 382e 533e 1ad3 f5be
00000230: 6109 8b3c 18c6 b23e 8d68 0f3e 1734 99bd
00000240: e553 2d3e 66c9 333e b61a d83e b0f8 273e
00000250: c499 853e 11d2 513e bd38 32be 9c79 ab3e
00000260: 16f3 db3e c791 28be 3f27 893e fad2 9b3e
00000270: 4745 803d b918 e3bd 0558 58be 32ed edbe
00000280: 7ec6 b4be 0951 a83e de3b 45be 1600 b8be
00000290: e897 90be e93f 39be 804c 893e 8e0b 363e
000002a0: 052f 693e 2a55 933e 0214 233e 6e87 14be
000002b0: 1136 dbbe fed9 85be c52d 673e 9e99 583e
000002c0: 8ab9 ea3d 87a2 883e a512 f3bb e63c 3d3e
000002d0: 354c 0e3e b848 383e dc14 f03e 9368 a63e
000002e0: dc39 393e 6a2d e03e e6d8 f53e 38d0 99be
000002f0: 1b18 9fbe 7703 983e ca38 f0be 81ae cabe
00000300: 3da3 a43e b0da e5be 0edb 3f3e 9c38 423e
00000310: a29e 763e 8bd8 863e 526a b3be ff21 953e
00000320: 4bf5 853e 402b 4d3e a409 f33d 2bfc e6bd
00000330: 1517 8cbd 9e37 a9be 66e5 e6bd 9d31 10bd
00000340: 2495 f9be 16d1 3d3e 8bff 1d3e 1952 163d
00000350: c6ea bc3e 1db8 cfbe af78 a33e cee3 4cbe
00000360: bb95 6e3e 1e2f d8bc 31bc 7e3e 8df6 793e
00000370: 94aa be3e 8fdd 8cbe f40b e13e 67ce a03e
00000380: 7bae 5d3d 95cf 5c3e f647 8a3d d209 36bd
00000390: ec04 76be 0db2 96be 4e3c 50be 0b6a 373e
000003a0: f63b 7ebe 901f 653e 1da0 613e 70cc bc3e
000003b0: c1d4 a23d 4f84 1e3e 9acd cebd e5e4 8c3e
000003c0: 6544 9f3d dccc 11be 8203 4abd bcbb 193e
000003d0: 5a47 cd3d 3fa7 01be f362 773e ca4d 26be
000003e0: f3ef 8ebe 09ed 15bd 413b 10be aff6 b03e
000003f0: 1146 87be 6c65 60be 9d22 83bd 8ec7 20bd
-0.018515732 -0.20507053 -0.36623698 -0.041864615 -0.19037102 0.011621101 0.086016685 0.30754945
-0.13878304 0.022395143 0.05997551 0.3088077 -0.32650417 -0.0046067582 -0.3941144 -0.07627068
-0.16355695 0.43107077 -0.09776373 -0.4751893 -0.12205933 0.1708443 -0.31279853 0.26159462
0.22042464 -0.15193474 -0.34166217 -0.22771291 0.29655805 0.23185086 0.037325043 -0.17244628
0.15175283 0.1000105 0.42074144 0.41389912 -0.10879146 -0.007640653 -0.12250007 -0.17060474
0.0004822122 -0.12886742 0.40618148 -0.59108305 -0.28992322 -0.22124273 -0.20493104 0.2958196
0.19789536 0.20172998 0.37742254 0.12163565 -0.004826824 -0.16400874 -0.35303178 -0.44277725
0.13754414 0.351271 -0.0805293 -0.06917812 0.07491096 0.24290632 0.12591545 0.22513482
0.1921149 -0.3422703 0.41557896 0.025983833 -0.35607615 0.029553648 -0.39305764 0.20733875
-0.22087052 0.3271895 -0.17360029 -0.05525021 0.21707976 0.47206926 0.16561034 0.04441613
-0.29002866 -0.050144326 0.38540253 -0.12288105 0.2835707 0.2554638 0.23164658 -0.2252673
-0.0044126175 -0.2245072 0.3862525 0.26430607 0.31256944 -0.0068421164 -0.15138526 -0.1429786
-0.26741263 -0.1826955 -0.16050436 -0.28784865 -0.43683726 0.027354583 0.30329183 -0.12159442
0.22821994 -0.071168795 -0.15396535 -0.047243956 0.2729702 -0.11239554 -0.06543994 -0.26566046
0.044613417 -0.0011376659 -0.075183876 0.065786555 0.06970974 0.12755054 -0.17924091 0.2919021
-0.111988425 0.32705954 -0.12554559 -0.30168727 -0.32849002 -0.05538652 -0.37769526 -0.30818138
0.058363676 -0.2220144 0.2749749 0.24077713 -0.14624642 -0.28832006 0.2635489 -0.101415366
-0.01763455 -0.3689467 0.206231 -0.4801262 0.016972246 0.3491676 0.14004727 -0.074806385
0.16926534 0.17557296 0.4220788 0.1640346 0.26093876 0.2049029 -0.17404456 0.33491218
0.42958897 -0.1646186 0.26787755 0.304344 0.062632136 -0.110887 -0.21127327 -0.46470028
-0.35307688 0.32874325 -0.19261119 -0.35937566 -0.28240895 -0.18090786 0.26816177 0.17777845
0.22771843 0.28775913 0.15925601 -0.14504787 -0.42814687 -0.26142877 0.22576053 0.2115235
0.1146117 0.266865 -0.007417994 0.18480262 0.13896258 0.1799649 0.46890914 0.3250166
0.18088478 0.43784648 0.48017043 -0.3004167 -0.3107308 0.29690143 -0.46918327 -0.3958626
0.3215579 -0.44893408 0.18735906 0.18966907 0.24083951 0.26337084 -0.35042053 0.291275
0.26163706 0.2003603 0.11867073 -0.11278566 -0.0684034 -0.33050245 -0.11274223 -0.035203565
-0.48746598 0.18536791 0.15429513 0.03669939 0.36897868 -0.40570155 0.31928012 -0.20008776
0.23299305 -0.026389655 0.24876477 0.24410458 0.37239516 -0.27512786 0.43954432 0.31407472
0.054121476 0.21563561 0.06752007 -0.04444296 -0.24025315 -0.29432717 -0.20335504 0.17911546
-0.24827561 0.22375321 0.22033735 0.36874723 0.07950736 0.15480159 -0.10097809 0.27518383
0.07776717 -0.14238304 -0.04931975 0.15013021 0.10023375 -0.12661456 0.2415884 -0.16240612
-0.27917442 -0.036603007 -0.14085104 0.34563205 -0.26420644 -0.2191369 -0.06403086 -0.03925281
