savedModels/actor_with_delay.pt (torch_old, 8340 bytes, 4 tensors)

target_policy.W1 f4 [600, 1]
-0.20997381 -0.08337641 0.28818285 -0.36783272 0.18636578 -0.0622606 -0.022355417 0.47181988
-0.20054245 -0.3963426 -0.060095258 0.28027526 0.019009106 -0.26306996 -0.6016312 -0.29552078
0.023430299 0.4497606 -0.22175957 0.35004476 0.60509163 -0.1276457 0.47242785 0.20280552
0.080970466 0.14623943 0.0059080273 0.13789038 0.19537328 0.36952615 -0.57991403 -0.33666897
0.14166623 -0.0946728 -0.3071106 -0.20735186 0.5331583 -0.22799015 0.27058893 0.169354
-0.14184818 -0.09606019 -0.017882785 0.09509872 0.4095139 0.26131433 0.45632058 -0.47264245
-0.45805374 0.1739916 0.12052944 0.4938851 -0.09330151 0.013601932 -0.089371815 -0.48424152
-0.072705716 0.08046422 0.17577592 0.43041587 0.2603969 -0.009900291 0.27855575 -0.24702165
0.30340952 0.31446978 -0.24217126 -0.006613278 -0.06987117 -0.33404854 -0.014006804 -0.31578535
0.30515903 -0.4287615 -0.32502457 -0.11609832 -0.25011432 0.22031066 -0.2259745 -0.10146445
-0.55432034 0.3200448 -0.28927302 -0.31533182 0.14136863 -0.40975666 -0.0004732474 0.20841551
0.15446213 0.04123572 -0.2699108 0.2482869 0.3576003 0.432028 -0.09695592 0.12048121
-0.28624892 -0.40122634 -0.043097615 0.2559595 0.069069125 -0.5090429 0.0039855456 0.22179341
-0.022048714 0.28923467 -0.1618508 -0.008951688 0.034714337 0.42010817 0.22836187 -0.5043287
0.32982022 0.25566873 -0.378099 0.025132168 -0.29156438 0.63121 0.32072097 -0.27921608
-0.18069176 -0.011521806 0.31636322 -0.13076562 0.041161947 -0.26581624 0.1798458 0.19738063
0.022968028 -0.22631279 0.38045368 0.18328865 0.2917525 -0.3276989 -0.1065478 -0.28072378
0.20873892 -0.27016413 0.018259568 -0.51364785 -0.08495157 -0.15635689 -0.17764887 -0.07707079
0.026219673 0.29445586 -0.12993696 -0.15394628 0.27051938 -0.43230838 -0.5609994 0.24106666
0.430178 0.18551311 -0.30617392 0.5414996 0.17095904 -0.31821156 0.36427736 -0.11002675
-0.12776345 0.4881232 -0.015727695 0.04505662 0.07838647 -0.25923207 -0.4417544 0.068772286
0.6188703 -0.35400835 0.34535116 0.21446311 0.42272282 -0.550304 -0.039408617 0.29269364
-0.27336872 0.052634522 0.13935047 0.18549238 -0.33715224 0.044919353 0.15444134 -0.20672438
0.005631357 -0.2078146 0.32513615 -0.3018543 0.35704014 0.43372202 0.36053413 0.2917944
-0.016897194 0.20230767 0.4326303 0.24532747 -0.23415275 -0.4289087 -0.28661793 -0.39025882
-0.14696456 0.04045563 -0.06393674 -0.40856975 0.3890006 0.14450482 -0.319157 -0.3083221
-0.040592518 0.4597217 0.1176655 -0.12720178 -0.03410267 -0.0897439 -0.03493917 0.22201836
0.23941253 -0.16362782 -0.0263103 0.14585817 0.11250081 -0.4526478 -0.48503724 0.1650631
-0.17870274 0.10733132 0.040710356 0.028487725 -0.200986 0.052749768 0.36428645 0.016017042
0.21169627 0.49612632 -0.33113527 0.30599952 -0.29989672 -0.300197 0.0770572 0.11293266
-0.15656255 -0.2238099 0.18647978 -0.05886523 0.036322717 0.4451607 -0.28592443 -0.0045610447
-0.20506696 0.21925315 -0.0035713369 -0.20353442 -0.30784312 0.21324873 -0.009584849 -0.12781894
00000000: 6003 57be 40c1 aabd b48c 933e 9254 bcbe
00000010: acd6 3e3e f904 7fbd b522 b7bc 6092 f13e
00000020: 005b 4dbe 6bed cabe 7226 76bd 3d80 8f3e
00000030: fcb8 9b3c 1bb1 86be 8104 1abf 804e 97be
00000040: e6f0 bf3c 0547 e63e f114 63be 1139 b33e
00000050: 49e7 1a3f 8eb5 02be 10e2 f13e 40ac 4f3e
00000060: d8d3 a53d cabf 153e 2098 c13b 2333 0d3e
00000070: ef0f 483e 8832 bd3e 3f75 14bf e05f acbe
00000080: f410 113e d0e3 c1bd 9a3d 9dbe 0c54 54be
00000090: 107d 083f 4076 69be a28a 8a3e 236b 2d3e
000000a0: a640 11be 34bb c4bd eb7e 92bc 1ec3 c23d
000000b0: ceab d13e feca 853e daa2 e93e 31fe f1be
000000c0: 0586 eabe db2a 323e 24d8 f63d 82de fc3e
000000d0: dd14 bfbd a3da 5e3c 9208 b7bd 81ee f7be
000000e0: bce6 94bd 6dca a43d 9afe 333e 785f dc3e
000000f0: be52 853e d534 22bc dc9e 8e3e 3ef3 7cbe
00000100: 7e58 9b3e 2f02 a13e befb 77be 32b4 d8bb
00000110: 9e18 8fbd 6908 abbe cb7c 65bc 9eae a1be
00000120: ce3d 9c3e a186 dbbe 9f69 a6be f5c4 edbd
00000130: fc0e 80be 1e99 613e dc65 67be 98cc cfbd
00000140: f0e7 0dbf e9dc a33e 981b 94be 2c73 a1be
00000150: f0c2 103e a0cb d1be 311e f8b9 e06a 553e
00000160: 522b 1e3e c9e6 283d c031 8abe ec3e 7e3e
00000170: 6317 b73e c632 dd3e d390 c6bd dabe f63d
00000180: 388f 92be 8a6d cdbe 2087 30bd 200d 833e
00000190: 1d74 8d3d a350 02bf 2e99 823b d01d 633e
000001a0: 819f b4bc 9116 943e 37bc 25be 1aaa 12bc
000001b0: 9f30 0e3d 6b18 d73e b2d7 693e b01b 01bf
000001c0: 32de a83e 03e7 823e 3196 c1be fae1 cd3c
000001d0: ed47 95be fb96 213f 8a35 a43e 69f5 8ebe
000001e0: 4307 39be f5c5 3cbc 5cfa a13e 6ce7 05be
000001f0: 6e99 283d 1119 88be 7f29 383e 261e 4a3e
00000200: 7227 bc3c 8abe 67be d3ca c23e 05b0 3b3e
00000210: 9560 953e 26c8 a7be bc35 dabd 07bb 8fbe
00000220: a8bf 553e f452 8abe 1795 953c 6d7e 03bf
00000230: 17fb adbd 051c 20be 96e9 35be 4ad7 9dbd
00000240: a4ca d63c ebc2 963e 320e 05be 18a4 1dbe
00000250: 8481 8a3e 8657 ddbe a89d 0fbf 2eda 763e
00000260: 4a40 dc3e 26f7 3d3e d4c2 9cbe b89f 0a3f
00000270: e30f 2f3e a0ec a2be 9082 ba3e b455 e1bd
00000280: 6cd4 02be 49eb f93e 5ed7 80bc 4a8d 383d
00000290: 1689 a03d 11ba 84be a22d e2be 7cd8 8c3d
000002a0: 496e 1e3f 9540 b5be ded1 b03e 389c 5b3e
000002b0: 206f d83e b9e0 0cbf ee6a 21bd f1db 953e
000002c0: fcf6 8bbe 4c97 573d e4b1 0e3e b7f1 3d3e
000002d0: 389f acbe 5bfd 373d df25 1e3e 8eaf 53be
000002e0: 3f87 b83b 5acd 54be 3f78 a63e a68c 9abe
000002f0: f7cd b63e d010 de3e ee97 b83e 1366 953e
00000300: fc6b 8abc be29 4f3e b881 dd3e 2037 7b3e
00000310: bdc5 6fbe ec99 dbbe 96bf 92be 01d0 c7be
00000320: e17d 16be cdb4 253d 44f1 82bd 0e30 d1be
00000330: 162b c73e 12f9 133e 8c68 a3be 65dc 9dbe
00000340: 5744 26bd a560 eb3e 9cfa f03d 2f41 02be
00000350: 3eaf 0bbd a6cb b7bd 601c 0fbd c858 633e
00000360: 8f28 753e 0d8e 27be b388 d7bc d85b 153e
00000370: d366 e63d 74c1 e7be cd56 f8be 4d06 293e
00000380: dafd 36be 86d0 db3d e7bf 263d 175f e93c
00000390: 46cf 4dbe 2410 583d c183 ba3e 2c36 833c
000003a0: e8c6 583e 4504 fe3e 908a a9be f8ab 9c3e
000003b0: 108c 99be 6cb3 99be 2ad0 9d3d 3d49 e73d
000003c0: ef51 20be 6c2e 65be 8ef4 3e3e ab1c 71bd
000003d0: 21c7 143d 1aec e33e b064 92be d174 95bb
000003e0: 13fd 51be e683 603e 170d 6abb 546b 50be
000003f0: 9d9d 9dbe e05d 5a3e c509 1dbc f8e2 02be

target_policy.W2 f4 [300, 1]
0.01788571 -0.21676303 -0.3597064 -0.025109675 -0.14707167 -0.0015259911 0.1069093 0.29946917
-0.114287734 0.0050599105 0.06688674 0.2550509 -0.34071136 -0.037929785 -0.36926377 -0.036652204
-0.15669836 0.45541298 -0.1408257 -0.4525251 -0.11571573 0.17013656 -0.28702435 0.24262609
0.18168156 -0.17876223 -0.31609526 -0.20605218 0.32784018 0.2168181 0.011102051 -0.18543583
0.12856591 0.08042497 0.39659202 0.38901705 -0.08066242 -0.00872974 -0.10638571 -0.18861908
-0.008817476 -0.09406435 0.3647438 -0.59079385 -0.24086185 -0.20191933 -0.17326243 0.2807702
0.18586296 0.1927367 0.3809561 0.13214292 -0.022061655 -0.15269953 -0.34982544 -0.42101514
0.10857475 0.32039678 -0.07790047 -0.06881706 0.081513494 0.21723342 0.1176987 0.20627202
0.14232942 -0.35540867 0.40903246 0.03298968 -0.29422402 0.06060069 -0.34176102 0.20026588
-0.1731423 0.31470007 -0.14158775 -0.02300831 0.23461919 0.46171537 0.15665731 0.061488993
-0.24283254 -0.048061937 0.3560855 -0.12284399 0.25814775 0.23970763 0.24380678 -0.19079138
0.0018148373 -0.26506624 0.35419983 0.22038805 0.31020164 -0.034436546 -0.123728134 -0.14748801
-0.24030268 -0.18138039 -0.11266378 -0.2826413 -0.4276901 0.064161405 0.2831468 -0.085026115
0.26588854 -0.058357522 -0.15413094 -0.0123710735 0.27805725 -0.10085553 -0.05500234 -0.22671628
0.05072291 -0.01000265 -0.066076405 0.060895044 0.060390845 0.15891173 -0.16137095 0.2524905
-0.101592936 0.31798118 -0.11852868 -0.29142094 -0.31586376 -0.061294716 -0.37160826 -0.22884092
0.04471175 -0.16601528 0.26433387 0.2528389 -0.12348855 -0.29693517 0.22980115 -0.1252628
-0.010017877 -0.33848062 0.2098137 -0.46384785 0.02360196 0.28296658 0.093403965 -0.028230218
0.12811983 0.19190687 0.37673008 0.18709268 0.24371347 0.19108231 -0.18322027 0.29000092
0.42152303 -0.14239961 0.27832693 0.3000769 0.05404908 -0.09174211 -0.20392685 -0.4410415
-0.31281206 0.2944223 -0.14792956 -0.33681697 -0.28115734 -0.18357043 0.23166566 0.16840543
0.2192497 0.21161917 0.092362486 -0.1729031 -0.43357378 -0.24396636 0.20970815 0.21721528
0.091724955 0.26561382 0.0012156565 0.19321492 0.09820148 0.2037372 0.43303278 0.31938633
0.1744687 0.40203944 0.48120767 -0.32083854 -0.32946762 0.30573907 -0.45428425 -0.3612369
0.3107332 -0.44649398 0.18188605 0.18308648 0.19520329 0.20917329 -0.3037883 0.30307564
0.2785418 0.2006751 0.15194847 -0.09264802 -0.077634335 -0.3125072 -0.11003838 -0.031249788
-0.4718254 0.16351362 0.106974445 -0.0047365283 0.34081015 -0.36948347 0.30863395 -0.1867543
0.18547148 -0.01458832 0.22894275 0.29177174 0.37154913 -0.2401645 0.43803692 0.25500846
0.017175682 0.135141 0.06317639 -0.0589004 -0.22324194 -0.25670335 -0.17373253 0.12677306
-0.25479615 0.18911467 0.24053615 0.32623994 0.060336716 0.15369391 -0.09059105 0.23824075
0.024372483 -0.09854658 -0.05261001 0.13587065 0.09755801 -0.11282816 0.24445115 -0.17188068
-0.2899696 -0.038802166 -0.12322195 0.32725036 -0.27727804 -0.22443847 -0.04118111 -0.07355425
00000000: 0d85 923c 21f7 5dbe 702b b8be ceb2 cdbc
00000010: f599 16be c403 c8ba 43f3 da3d 0654 993e
00000020: b00f eabd 9bcd a53b eafb 883d 0896 823e
00000030: b871 aebe 435c 1bbd 2410 bdbe 9f20 16bd
00000040: 8975 20be e42b e93e 9d34 10be 5fb1 e7be
00000050: 5efc ecbd 4738 2e3e dbf4 92be f972 783e
00000060: bb0a 3a3e 720d 37be 3dd7 a1be 58ff 52be
00000070: abda a73e 9005 5e3e 60e5 353c e4e2 3dbe
00000080: c8a6 033e d9b5 a43d 1c0e cb3e 3e2d c73e
00000090: 5732 a5bd 2f07 0fbc c0e0 d9bd 5c25 41be
000000a0: 2d77 10bc cfa4 c0bd b3bf ba3e 443e 17bf
000000b0: 7da4 76be f1c3 4ebe b56b 31be 1dc1 8f3e
000000c0: dc52 3e3e c55c 453e ae0c c33e 7950 073e
000000d0: a5ba b4bc 445d 1cbe 521c b3be 4c8f d7be
000000e0: 705c de3d 0c0b a43e 488a 9fbd f5ef 8cbd
000000f0: 8cf0 a63d 7072 5e3e 040c f13d f938 533e
00000100: cebe 113e 20f8 b5be b46c d13e 3020 073d
00000110: 88a4 96be 6e38 783d 4dfb aebe 8012 4d3e
00000120: 374c 31be 5e20 a13e 61fc 10be ec7b bcbc
00000130: 0340 703e f565 ec3e c66a 203e e2db 7b3d
00000140: 18a9 78be 98dc 44bd d750 b63e a195 fbbd
00000150: f12b 843e eb75 753e 7ca8 793e d15e 43be
00000160: d6df ed3a c3b6 87be ae59 b53e 68ad 613e
00000170: c0d2 9e3e 560d 0dbd 2d65 fdbd 1907 17be
00000180: e811 76be c8bb 39be 45bc e6bd 5cb6 90be
00000190: 32fa dabe 0e67 833d 9ef8 903e 2c22 aebd
000001a0: 8b22 883e 4c08 6fbd 80d4 1dbe 0bb0 4abc
000001b0: 855d 8e3e 588d cebd 224a 61bd 5028 68be
000001c0: d3c2 4f3d 28e2 23bc 1153 87bd 156d 793d
000001d0: 645c 773d c2b9 223e 6d3e 25be 6f46 813e
000001e0: f50f d0bd 6ece a23e 2abf f2bd 2035 95be
000001f0: e5b8 a1be 2b10 7bbd 7043 bebe 4655 6abe
00000200: ab23 373d e9ff 29be c556 873e 1a74 813e
00000210: 91e7 fcbd e307 98be fe50 6b3e e444 00be
00000220: 0622 24bc 554d adbe 67d9 563e 777d edbe
00000230: e658 c13c ffe0 903e 944a bf3d 0f43 e7bc
00000240: d831 033e 3c83 443e c4e2 c03e 3995 3f3e
00000250: 0690 793e 15ab 433e 189e 3bbe 007b 943e
00000260: ded1 d73e 34d1 11be de80 8e3e aea3 993e
00000270: 9162 5d3d 4ae3 bbbd 33d2 50be 31d0 e1be
00000280: e728 a0be 85be 963e d97a 17be 4673 acbe
00000290: dbf3 8fbe e3f9 3bbe c339 6d3e 7972 2c3e
000002a0: fe82 603e b2b2 583e 8b28 bd3d 830d 31be
000002b0: 62fd ddbe 51d2 79be bcbd 563e af6d 5e3e
000002c0: 4bda bb3d 89fe 873e aa56 9f3a 22da 453e
000002d0: dc1d c93d 7ca0 503e 79b6 dd3e 9b86 a33e
000002e0: eca7 323e 1dd8 cd3e da60 f63e f344 a4be
000002f0: fbaf a8be d589 9c3e f297 e8be 0bf4 b8be
00000300: 6c18 9f3e dc9a e4be 5640 3a3e 067b 3b3e
00000310: 5fe3 473e 8631 563e 248a 9bbe bb2c 9b3e
00000320: 089d 8e3e c67d 4d3e 6198 1b3e 3fbe bdbd
00000330: c0fe 9ebd f200 a0be cd5b e1bd 8eff ffbc
00000340: 1993 f1be 1d70 273e 6b15 db3d e134 9bbb
00000350: ab7e ae3e f02c bdbe 4505 9e3e 853c 3fbe
00000360: 3cec 3d3e d903 6fbc f86f 6a3e 1b63 953e
00000370: b03b be3e afed 75be 6046 e03e 7890 823e
00000380: 04b4 8c3c 6762 0a3e a062 813d 8c41 71bd
00000390: 8999 64be 9f6e 83be f1e6 31be ccd0 013e
000003a0: a474 82be 47a7 413e 1c4f 763e ec08 a73e
000003b0: a223 773d f061 1d3e cd87 b9bd 62f5 733e
000003c0: cda8 c73c cad2 c9bd 987d 57bd ad21 0b3e
000003d0: 7ecc c73d 7312 e7bd 6751 7a3e 7d01 30be
000003e0: e576 94be 05ef 1ebd ca5b fcbd 5c8d a73e
000003f0: 63f7 8dbe 33d3 65be 86ad 28bd 9ca3 96bd

active_policy.W1 f4 [600, 1]
-0.21145082 -0.07903541 0.28785056 -0.36981636 0.17929421 -0.06684686 -0.02076894 0.47310767
-0.19970647 -0.39523923 -0.05544335 0.28201255 0.018617166 -0.2621808 -0.5982649 -0.29843232
0.02411573 0.44870585 -0.22048047 0.35246402 0.60784084 -0.12768002 0.47675356 0.20180303
0.08117431 0.1438383 0.014706563 0.13963091 0.19144909 0.36888584 -0.58179855 -0.34121382
0.14212695 -0.09450358 -0.30644745 -0.20812231 0.5318313 -0.22746228 0.27210042 0.16899611
-0.14184207 -0.096183136 -0.019510578 0.0922753 0.41004315 0.2591314 0.45848802 -0.48059362
-0.4574473 0.17394023 0.121130824 0.49305126 -0.08946912 0.012235328 -0.08872647 -0.4831753
-0.07309819 0.080466226 0.17867269 0.43862984 0.25943953 -0.0059538772 0.27809012 -0.24548702
0.30281478 0.31328312 -0.24119742 -0.008484022 -0.07353419 -0.33217785 -0.014972043 -0.31504264
0.30229285 -0.43305987 -0.32532665 -0.11581347 -0.24994546 0.22226885 -0.22448175 -0.10358128
-0.5610987 0.31882083 -0.29148722 -0.3182908 0.14041713 -0.4108899 -0.0012986393 0.21248642
0.15423767 0.041112542 -0.26754546 0.24998955 0.35655224 0.43144858 -0.09588274 0.12637323
-0.28603643 -0.40058362 -0.042989954 0.25659874 0.068363 -0.50855964 0.004019128 0.22048344
-0.022428181 0.2880984 -0.16164601 -0.008189247 0.032072585 0.42396995 0.22892492 -0.5043903
0.32863143 0.2621038 -0.37835586 0.025529638 -0.28385496 0.6327009 0.32622114 -0.28220809
-0.18068796 -0.012235703 0.31736276 -0.13183452 0.04043948 -0.26729497 0.18003742 0.19854335
0.020157922 -0.22654463 0.37953848 0.17992932 0.29215696 -0.32705602 -0.108641446 -0.2809102
0.20298956 -0.27105916 0.016130835 -0.51398623 -0.08424728 -0.15565181 -0.17765678 -0.07669156
0.028307114 0.2938409 -0.12859301 -0.15375017 0.271255 -0.43447137 -0.56490326 0.24352212
0.42951402 0.18015563 -0.30694366 0.5440307 0.16671431 -0.32382146 0.36272958 -0.10921771
-0.12818596 0.4866635 -0.016532354 0.04251116 0.077082574 -0.25965273 -0.44330433 0.07013895
0.625756 -0.3559339 0.34496984 0.21360245 0.42306775 -0.54859984 -0.041223742 0.29355174
-0.27325413 0.05247089 0.14107622 0.18231855 -0.33538693 0.044795424 0.15279552 -0.20575327
0.0020679818 -0.20882624 0.3248327 -0.30143222 0.35657075 0.43391222 0.3612672 0.29131702
-0.014577125 0.20157194 0.43251488 0.24584147 -0.23464423 -0.42583814 -0.28698605 -0.3914593
-0.1499999 0.039453987 -0.061190926 -0.41191658 0.38837808 0.14448147 -0.32382262 -0.30592293
-0.039967522 0.45866978 0.114550464 -0.12369721 -0.03552557 -0.088976316 -0.037000865 0.2248228
0.23926677 -0.1642771 -0.028231964 0.14043179 0.11029384 -0.45242018 -0.48745045 0.16541252
-0.17622958 0.10485304 0.041921616 0.02921864 -0.20051984 0.05439675 0.3677461 0.015664952
0.20947757 0.5026548 -0.3296245 0.3056766 -0.2958364 -0.30051002 0.078779355 0.11973559
-0.15607926 -0.21944422 0.18447831 -0.05689134 0.040502436 0.44352967 -0.28553292 -0.0043622917
-0.20969118 0.21898 -0.001531302 -0.2033766 -0.30743074 0.21444753 -0.011632833 -0.12804635
00000000: 9086 58be 51dd a1bd 2661 933e 9258 bdbe
00000010: e798 373e 02e7 88bd a023 aabc 2b3b f23e
00000020: da7f 4cbe cc5c cabe 9118 63bd f363 903e
00000030: 0783 983c 903c 86be e327 19bf 1fcc 98be
00000040: 5a8e c53c c6bc e53e a2c5 61be 2a76 b43e
00000050: 759b 1b3f 8dbe 02be 0b19 f43e 74a5 4e3e
00000060: b73e a63d 594a 133e ccf3 703c 68fb 0e3e
00000070: 3b0b 443e 9bde bc3e c0f0 14bf 94b3 aebe
00000080: ba89 113e 188b c1bd aee6 9cbe 041e 55be
00000090: 1926 083f dfeb 68be bf50 8b3e 510d 2d3e
000000a0: 0c3f 11be aafb c4bd a6d4 9fbc d5fa bc3d
000000b0: 2df1 d13e dfac 843e f1be ea3e 5e10 f6be
000000c0: 8836 eabe 631d 323e 7013 f83d 3771 fc3e
000000d0: 963b b7bd af76 483c 39b6 b5bd c162 f7be
000000e0: 81b4 95bd 7acb a43d f9f5 363e 1794 e03e
000000f0: 42d5 843e be18 c3bb d461 8e3e f360 7bbe
00000100: 8a0a 9b3e a566 a03e 75fc 76be 9100 0bbc
00000110: 1899 96bd 3713 aabe 4d4d 75bc 454d a1be
00000120: 21c6 9a3e 06ba ddbe 3791 a6be 9d2f edbd
00000130: b4f1 7fbe 729a 633e 8bde 65be 6c22 d4bd
00000140: 2aa4 0fbf 7c3c a33e d03d 95be 03f7 a2be
00000150: 82c9 0f3e 2960 d2be 1b37 aaba 0a96 593e
00000160: 7bf0 1d3e a065 283d b8fb 88be 43fd 7f3e
00000170: 048e b63e d4e6 dc3e 2c5e c4bd fc67 013e
00000180: 5e73 92be 4c19 cdbe 3c16 30bd e960 833e
00000190: e701 8c3d f730 02bf e4b2 833b 69c6 613e
000001a0: 4ebb b7bc a281 933e 8886 25be 312c 06bc
000001b0: 8b5e 033d 9712 d93e 4b6b 6a3e b91f 01bf
000001c0: 6142 a83e 7832 863e dcb7 c1be 8823 d13c
000001d0: 7055 91be b0f8 213f 7506 a73e 947d 90be
000001e0: 4406 39be 4278 48bc 5f7d a23e a1ff 06be
000001f0: dea3 253d e3da 88be bb5b 383e f34e 4b3e
00000200: 3a22 a53c 51fb 67be de52 c23e 643f 383e
00000210: 9995 953e e373 a7be 687f debd 76d3 8fbe
00000220: 7fdc 4f3e 44c8 8abe d024 843c 9a94 03bf
00000230: d789 acbd 3063 1fbe a9eb 35be 7710 9dbd
00000240: 52e4 e73c 5072 963e e3ad 03be af70 1dbe
00000250: efe1 8a3e 0873 debe 809d 10bf dd5d 793e
00000260: 43e9 db3e b87a 383e b827 9dbe 9945 0b3f
00000270: 28b7 2a3e edcb a5be b1b7 b93e 89ad dfbd
00000280: 2e43 03be f52b f93e dc6e 87bc 2f20 2e3d
00000290: 78dd 9d3d 34f1 84be c9f8 e2be 03a5 8f3d
000002a0: 8c31 203f f83c b6be e39f b03e 9aba 5a3e
000002b0: 569c d83e 0a71 0cbf 3ada 28bd 6a4c 963e
000002c0: f7e7 8bbe b7eb 563d 4976 103e b7b1 3a3e
000002d0: d6b7 abbe 687b 373d 6e76 1c3e fcb0 52be
000002e0: fa86 073b 8cd6 55be 7950 a63e 5355 9abe
000002f0: 7190 b63e be29 de3e 04f8 b83e 8127 953e
00000300: e5d4 6ebc e068 4e3e 9772 dd3e debd 7b3e
00000310: 9446 70be 7507 dabe d6ef 92be 5a6d c8be
00000320: 9399 19be 819a 213d 56a3 7abd bbe6 d2be
00000330: 7ed9 c63e f3f2 133e 14cc a5be eea1 9cbe
00000340: fcb4 23bd c4d6 ea3e 6f99 ea3d f654 fdbd
00000350: 4383 11bd 3739 b6bd 388e 17bd f337 663e
00000360: 5902 753e 4238 28be b846 e7bc 5acd 0f3e
00000370: bde1 e13d 9ea3 e7be 1b93 f9be e661 293e
00000380: 8775 34be 31bd d63d 00b6 2b3d ee5b ef3c
00000390: 1355 4dbe 20cf 5e3d 3849 bc3e c953 803c
000003a0: 4a81 563e fcad 003f 8bc4 a8be a581 9c3e
000003b0: de77 97be 73dc 99be 1257 a13d ef37 f53d
000003c0: 3ed3 1fbe fcb5 60be e2e7 3c3e e506 69bd
000003d0: e2e5 253d 5216 e33e 5f31 92be 8ef1 8ebb
000003e0: 49b9 56be 4b3c 603e f8b5 c8ba f541 50be
000003f0: 9067 9dbe 2298 5b3e a397 3ebc 951e 03be

active_policy.W2 f4 [300, 1]
0.018573586 -0.21745616 -0.35748568 -0.024252001 -0.14677678 -0.00054071465 0.10668327 0.2990687
-0.115237795 0.0065138824 0.06677156 0.2553146 -0.34080938 -0.039145473 -0.36984488 -0.035901904
-0.15638092 0.45666578 -0.14136107 -0.45183873 -0.115828335 0.16882569 -0.28724816 0.2417031
0.18326727 -0.17779298 -0.31483027 -0.2060195 0.32782784 0.21541579 0.012220249 -0.18614443
0.12909319 0.08125363 0.3972436 0.38767788 -0.08043814 -0.008286705 -0.10510946 -0.18836284
-0.008223796 -0.09438634 0.36546683 -0.5897643 -0.2416808 -0.20393716 -0.17320344 0.27994195
0.18587805 0.191973 0.38015008 0.13272977 -0.023751954 -0.15208967 -0.34952405 -0.4206916
0.109077975 0.3193956 -0.07894465 -0.06972749 0.08074964 0.21625665 0.117440574 0.20470557
0.14252266 -0.35450053 0.40859535 0.03366901 -0.29365084 0.058854055 -0.34165293 0.20187475
-0.1731045 0.3136746 -0.14250438 -0.022455137 0.23337676 0.46102408 0.15811346 0.061825007
-0.24156313 -0.048767593 0.35443455 -0.12291466 0.25904378 0.23805696 0.24448201 -0.19141775
0.0035790487 -0.26562563 0.35482037 0.21926075 0.31047153 -0.034034044 -0.124732316 -0.14654492
-0.23877548 -0.1821685 -0.113133095 -0.28199357 -0.4284163 0.06466332 0.28325883 -0.08450884
0.26632687 -0.058584265 -0.1542141 -0.01093001 0.27832502 -0.10123734 -0.05421413 -0.22677164
0.05075853 -0.008713426 -0.0654786 0.061330784 0.060008645 0.15837269 -0.16241968 0.25249717
-0.10149703 0.31742468 -0.11897151 -0.29167306 -0.31597564 -0.061574854 -0.37179148 -0.2301158
0.045036722 -0.16685869 0.26399535 0.25284576 -0.12408265 -0.29719824 0.23095074 -0.12693885
-0.010617769 -0.3375486 0.21018307 -0.4638932 0.021409975 0.28223485 0.09387656 -0.028966706
0.1294908 0.19318952 0.37543732 0.18710056 0.2442712 0.19083971 -0.18214844 0.28903157
0.42122114 -0.14193857 0.2783224 0.29880384 0.05447365 -0.09220646 -0.20423327 -0.4411933
-0.3133025 0.2950454 -0.14885397 -0.33731923 -0.28122836 -0.18378864 0.23255067 0.16823053
0.2199737 0.21129356 0.09240979 -0.17335267 -0.43228805 -0.24439058 0.21111435 0.21735978
0.09156196 0.26642883 0.0016784231 0.1928476 0.09660259 0.20409682 0.43223703 0.31982005
0.17436917 0.4031107 0.48003456 -0.32138404 -0.3305037 0.30564207 -0.45349497 -0.36099026
0.3106022 -0.4450246 0.18252756 0.18328409 0.19768225 0.20985349 -0.30335155 0.30354142
0.27730006 0.20123644 0.15247668 -0.09273148 -0.07817902 -0.31363225 -0.11036081 -0.032195535
-0.47014672 0.16498806 0.10781938 -0.0043061688 0.34131208 -0.37042442 0.3079459 -0.1881223
0.18430312 -0.01447373 0.22736782 0.29168487 0.3717179 -0.23977993 0.4379615 0.25549325
0.018562378 0.13496102 0.06288367 -0.05934475 -0.22360191 -0.2552932 -0.17429271 0.12814768
-0.255349 0.1896039 0.24097896 0.32531127 0.06193619 0.15357211 -0.0894791 0.23750217
0.022895519 -0.09836573 -0.053862948 0.13533893 0.09881417 -0.11220435 0.24421822 -0.17331094
-0.2893737 -0.036282662 -0.12305115 0.32764658 -0.27647388 -0.224002 -0.0421001 -0.073490866
00000000: a227 983c d4ac 5ebe 5d08 b7be 22ac c6bc
00000010: a74c 16be bfbe 0dba c27c da3d 881f 993e
00000020: cb01 ecbd 6872 d53b 87bf 883d 98b8 823e
00000030: 917e aebe 0157 20bd 4f5c bdbe e00d 13bd
00000040: 5222 20be 19d0 e93e f5c0 10be 6857 e7be
00000050: 6837 edbd a4e0 2c3e 3112 93be 0481 773e
00000060: 6aaa 3b3e 5d0f 36be 6f31 a1be c7f6 52be
00000070: 0dd9 a73e f595 5c3e 7037 483c a59c 3ebe
00000080: 0131 043e 4e68 a63d 8363 cb3e b77d c63e
00000090: c0bc a4bd f6c4 07bc a143 d7bd 30e2 40be
000000a0: 1abd 06bc a04d c1bd 781e bb3e cbfa 16bf
000000b0: 2c7b 77be e7d4 50be 3e5c 31be 8d54 8f3e
000000c0: d156 3e3e 9294 443e 08a3 c23e 50ea 073e
000000d0: 7593 c2bc 65bd 1bbe d1f4 b2be e464 d7be
000000e0: 4664 df3d d287 a33e bcad a1bd 49cd 8ebd
000000f0: 1160 a53d 6272 5d3e af84 f03d 569e 513e
00000100: 76f1 113e 1881 b5be 6933 d13e 84e8 093d
00000110: 6759 96be f310 713d 22ed aebe 41b8 4e3e
00000120: 4e42 31be f599 a03e abec 11be d6f3 b7bc
00000130: 51fa 6e3e 590b ec3e 7fe8 213e 383c 7d3d
00000140: 535c 77be 87c0 47bd 7278 b53e aeba fbbd
00000150: 63a1 843e 34c5 733e 7e59 7a3e 0403 44be
00000160: 798e 6a3b 1500 88be 04ab b53e e485 603e
00000170: 20f6 9e3e 4867 0bbd a873 ffbd df0f 16be
00000180: 8f81 74be 618a 3abe 53b2 e7bd 7661 90be
00000190: 6259 dbbe 346e 843d 4d07 913e f912 adbd
000001a0: ff5b 883e 0ef6 6fbd 4dea 1dbe c913 33bc
000001b0: 9e80 8e3e 8655 cfbd a30f 5ebd d336 68be
000001c0: 2de8 4f3d c2c2 0ebc a519 86bd fd35 7b3d
000001d0: a0cb 753d 732c 223e 5851 26be 4f47 813e
000001e0: addd cfbd 7d85 a23e 56a7 f3bd 2c56 95be
000001f0: 8fc7 a1be ea35 7cbd 745b bebe 7aa3 6bbe
00000200: 6d78 383d 01dd 2abe 662a 873e 0075 813e
00000210: 0b1f febd 5e2a 98be 5a7e 6c3e 42fc 01be
00000220: 27f6 2dbc 2cd3 acbe 3b3a 573e 6983 edbe
00000230: f963 af3c 1681 903e 5b42 c03d 964b edbc
00000240: 3c99 043e 79d3 453e 5239 c03e 4a97 3f3e
00000250: 3b22 7a3e 7c6b 433e 1f85 3abe f2fb 933e
00000260: 4caa d73e 5858 11be 4680 8e3e d1fc 983e
00000270: c31f 5f3d bed6 bcbd 8722 51be 17e4 e1be
00000280: 2f69 a0be 3110 973e 2d6d 18be 1bb5 acbe
00000290: 2afd 8fbe 1733 3cbe c321 6e3e a044 2c3e
000002a0: c940 613e 575d 583e 5841 bd3d 5d83 31be
000002b0: dc54 ddbe 8641 7abe 5c2e 583e 9093 5e3e
000002c0: d684 bb3d 5c69 883e 89fe db3a d779 453e
000002d0: 94d7 c53d c2fe 503e 2c4e dd3e 74bf a33e
000002e0: d58d 323e 8764 ce3e 17c7 f53e 738c a4be
000002f0: c837 a9be 1e7d 9c3e 7e30 e8be b7d3 b8be
00000300: 4007 9f3e 44da e3be 81e8 3a3e d3ae 3b3e
00000310: 376d 4a3e d5e3 563e e550 9bbe c869 9b3e
00000320: 46fa 8d3e ed10 4e3e d922 1c3e 01ea bdbd
00000330: 521c a0bd 6894 a0be d904 e2bd 77df 03bd
00000340: 12b7 f0be a1f2 283e 68d0 dc3d c31a 8dbb
00000350: 75c0 ae3e 45a8 bdbe 16ab 9d3e 22a3 40be
00000360: f5b9 3c3e 3923 6dbc 1cd3 683e b857 953e
00000370: cf51 be3e df88 75be 7d3c e03e 03d0 823e
00000380: 2110 983c 3933 0a3e 27c9 803d 7b13 73bd
00000390: e6f7 64be cab5 82be ca79 32be 2539 033e
000003a0: 1bbd 82be 8627 423e 30c3 763e 338f a63e
000003b0: cdb0 7d3d 0242 1d3e d240 b7bd c533 733e
000003c0: 628f bb3c f973 c9bd 659f 5cbd 4a96 0a3e
000003d0: 155f ca3d 65cb e5bd 5714 7a3e 6c78 31be
000003e0: ca28 94be 219d 14bd 3e02 fcbd 4bc1 a73e
000003f0: fc8d 8dbe c860 65be 2871 2cbd 6182 96bd
